…
/localhost:8080/"},"id":"xEVCzwBMh5F-","executionInfo":{"status":"ok","timestamp":1713601134067,"user_tz":-300,"elapsed":364,"user":{"displayName":"k213092 Muhammad Ahmed","userId":"03113111857827419676"}},"outputId":"6b9eb21c-684c-4038-d3da-24983c7446c9"},"execution_count":64,"outputs":[{"output_type":"stream","name":"stdout","text":"Model: \"sequential_5\"\n\n_________________________________________________________________\n\n Layer (type)                Output Shape              Param #   \n\n=================================================================\n\n conv2d_15 (Conv2D)          (None, 46, 46, 32)        320       \n\n                                                                 \n\n max_pooling2d_15 (MaxPooli  (None, 23, 23, 32)        0         \n\n ng2D)                                                           \n\n                                                                 \n\n batch_normalization_1 (Bat  (None, 23, 23, 32)        128       \n\n chNormalization)                                                \n\n                                                                 \n\n conv2d_16 (Conv2D)          (None, 21, 21, 64)        18496     \n\n                                                                 \n\n max_pooling2d_16 (MaxPooli  (None, 10, 10, 64)        0         \n\n ng2D)                                                           \n\n                                                                 \n\n batch_normalization_2 (Bat  (None, 10, 10, 64)        256       \n\n chNormalization)                                                \n\n                                                                 \n\n conv2d_17 (Conv2D)          (None, 8, 8, 128)         73856     \n\n                                                                 \n\n max_pooling2d_17 (MaxPooli  (None, 4, 4, 128)         0         \n\n ng2D)                                                           \n\n                                                                 \n\n batch_normalization_3 (Bat  (None, 4, 4, 128)         512       \n\n chNormalization)                                                \n\n                                                                 \n\n flatten_5 (Flatten)         (None, 2048)              0         \n\n                                                                 \n\n dense_10 (Dense)            (None, 128)               262272    \n\n                                                                 \n\n dense_11 (Dense)            (None, 7)                 903       \n\n                                                                 \n\n=================================================================\n\nTotal params: 356743 (1.36 MB)\n\nTrainable params: 356295 (1.36 MB)\n\nNon-trainable params: 448 (1.75 KB)\n\n_________________________________________________________________\n"}]},{"cell_type":"code","source":"basemodel.compile(optimizer='RMSProp',
…
